example/select_ops_test/select_ops_model/converted_model.tflite (tflite, 68776 bytes, 2 tensors)

arith.constant f4 [128, 128]
0.06542125 0.12945177 0.108227745 0.013132125 0.024546564 -0.1513491 -0.071796596 0.10671027
-0.02121149 0.0805964 0.11946197 0.14933024 0.13022684 0.07944402 0.02331242 0.12960725
-0.11604887 0.15080835 -0.09356837 -0.063966714 -0.13483438 -0.014256373 -0.040729746 -0.12662259
-0.081905305 0.13494961 0.08648057 -0.026132166 0.07226804 -0.118647724 -0.08194308 0.10627599
0.09145333 0.08820251 -0.047184378 -0.015031025 -0.045221247 0.101675615 -0.05148779 0.09270072
-0.007910952 0.01729539 -0.12020059 0.09020539 0.10206322 0.13411804 0.005275637 0.059563503
0.13681455 0.028593019 0.09213516 0.07841161 -0.14074841 0.08690216 -0.053211585 -0.06708026
0.13484572 -0.12402531 0.047396258 0.008282483 -0.11052588 0.037147358 -0.018116534 0.13724901
-0.13070017 -0.06371208 -0.012701541 -0.11353974 -0.064264916 -0.033197008 0.040876955 -0.06545173
-0.060628913 0.014700979 0.043340057 0.09112023 -0.031773537 0.054035902 -0.06612165 -0.12895358
-0.04577966 0.02892524 -0.13655138 -0.0072196424 0.0026426166 -0.1065671 -0.078965425 0.09059386
0.030492991 0.103777274 0.0045509636 -0.0906112 0.08796741 -0.09730753 -0.0075704753 -0.012427494
0.028145075 0.0058348924 -0.03141609 -0.026264518 -0.13161214 0.090929836 0.02519977 -0.1466759
-0.09771597 0.106646016 -0.072862625 -0.11806668 0.10331412 -0.10920909 -0.09637907 -0.049969383
-0.030876212 -0.0857383 0.14833082 -0.13741842 -0.0069414377 -0.008995563 -0.11089033 -0.14095674
0.046661183 -0.022635117 0.09744547 0.14347441 -0.120705575 0.08499396 0.08700961 -0.0036978424
-0.019948691 -0.14904396 -0.008320153 -0.010342926 -0.11051157 -0.015754059 -0.09929825 0.008657604
0.06133172 -0.0021414012 -0.069947384 0.028566435 -0.098201856 0.14177944 0.09490286 0.037431553
-0.0696878 -0.11026672 0.117906556 -0.038879365 -0.05473555 0.10494636 -0.061319567 -0.15124744
0.09579894 -0.099108085 -0.08249062 0.006297499 0.06813748 0.117146894 -0.01530236 0.08659318
0.09279719 -0.025334343 -0.083160624 0.062118962 0.01279819 0.08959828 -0.0016913116 -0.11357696
-0.116426066 0.10450481 0.1477109 0.013928354 -0.025498047 -0.039111212 -0.050549187 0.14576994
0.095196754 0.11884172 0.12264453 -0.03271024 -0.009229019 -0.00069102645 -0.121117696 0.040327802
0.062161118 -0.14419541 -0.055941038 0.032533035 -0.08024838 0.14859392 0.15309115 0.040586486
-0.037513122 0.13891079 -0.0987533 -0.012690946 0.08754361 0.03152366 -0.09646708 0.14770927
0.13654418 -0.107994944 0.012597218 -0.02576615 0.13158531 0.11068885 -0.08802742 -0.08436308
0.004872203 -0.003297791 0.010857761 0.023596063 -0.14112724 -0.14829595 0.0012671798 -0.1108547
0.0908099 0.13065235 -0.07443228 0.07737237 0.06487042 0.029580384 0.0030240864 -0.07954407
0.009817466 0.0382362 0.06366125 -0.113227144 -0.01513201 -0.13675751 -0.14636809 -0.061516047
-0.10428491 -0.14374873 0.03068228 -0.10283272 0.04127845 0.120867416 0.14032985 0.048598573
-0.07782002 0.06030804 -0.08572998 0.030357689 -0.120941035 0.079104856 0.028391197 0.010017127
0.10079889 -0.04280781 0.001525417 -0.003922358 0.11258207 -0.02023293 -0.018459529 -0.14653008
00000000: 94fb 853d 018f 043e 82a6 dd3d 2028 573c
00000010: e015 c93c 42fb 1abe 180a 93bd ea8a da3d
00000020: b8c3 adbc ba0f a53d 7aa8 f43d 07ea 183e
00000030: 2f5a 053e 8cb3 a23d b0f9 be3c c3b7 043e
00000040: 08ab edbd 816d 1a3e c6a0 bfbd fb00 83bd
00000050: 0612 0abe 9093 69bc 3cd4 26bd 5aa9 01be
00000060: f8bd a7bd 3b30 0a3e ba1c b13d 2013 d6bc
00000070: 4401 943d 94fd f2bd c6d1 a7bd 3aa7 d93d
00000080: e24b bb3d 84a3 b43d 6844 41bd b044 76bc
00000090: ea39 39bd 4e3b d03d dce4 52bd e0d9 bd3d
000000a0: f09c 01bc 10af 8d3c ba2b f6bd 9abd b83d
000000b0: 8606 d13d 3d56 093e 40df ac3b dcf8 733d
000000c0: 1d19 0c3e e83b ea3c 5cb1 bc3d 4496 a03d
000000d0: 5a20 10be c2f9 b13d 64f4 59bd 6061 89bd
000000e0: ff14 0a3e fb00 febd 9422 423d 40b3 073c
000000f0: 645b e2bd d427 183d 2069 94bc 018b 0c3e
00000100: 44d6 05be 7b7b 82bd 201a 50bc 8687 e8bd
00000110: 539d 83bd 96f9 07bd 986e 273d 8e0b 86bd
00000120: 0656 78bd 60dc 703c 5885 313d 3e9d ba3d
00000130: f824 02bd c054 5d3d ca6a 87bd 680c 04be
00000140: 7483 3bbd a0f4 ec3c 20d4 0bbe c092 ecbb
00000150: c02f 2d3b da3f dabd a0b8 a1bd 4689 b93d
00000160: 70cc f93c 2e89 d43d 4020 953b 5d92 b9bd
00000170: 4228 b43d 2c49 c7bd c011 f8bb b09c 4bbc
00000180: 8090 e63c a032 bf3b 28ae 00bd b028 d7bc
00000190: 55c5 06be 6c39 ba3d c06f ce3c 3532 16be
000001a0: 4f1f c8bd 3a69 da3d 0039 95bd f2cc f1bd
000001b0: 5a96 d33d 04a9 dfbd 6462 c5bd b2ac 4cbd
000001c0: 1cf0 fcbc 9097 afbd 09e4 173e 6ab7 0cbe
000001d0: 0075 e3bb 2062 13bc 781a e3bd f756 10be
000001e0: cc1f 3f3d 486d b9bc 7e91 c73d f5ea 123e
000001f0: 7c34 f7bd 5011 ae3d 1832 b23d 8057 72bb
00000200: 706b a3bc fb9e 18be 4051 08bc 6075 29bc
00000210: e453 e2bd a80e 81bc e25c cbbd a0d8 0d3c
00000220: f836 7b3d c056 0cbb 9340 8fbd 2804 ea3c
00000230: 0e1e c9bd a12e 113e 6e5c c23d d451 193d
00000240: 7ab8 8ebd 85d3 e1bd fe78 f13d f83f 1fbd
00000250: 6232 60bd 1eee d63d 3a2a 7bbd 9ce0 1abe
00000260: 3c32 c43d 2ef9 cabd d8f0 a8bd 405b ce3b
00000270: aa8b 8b3d b6ea ef3d c0b6 7abc c457 b13d
00000280: 740c be3d f889 cfbc 1e50 aabd 7470 7e3d
00000290: 80af 513c 4e7f b73d 00af ddba 0a9b e8bd
000002a0: ca70 eebd 9e06 d63d 8741 173e c033 643c
000002b0: 48e1 d0bc 1433 20bd aa0c 4fbd b744 153e
000002c0: 84f6 c23d 4a63 f33d 0e2d fb3d 2cfb 05bd
000002d0: 5035 17bc 0026 35ba 8e0c f8bd c42e 253d
000002e0: a89c 7e3d f6a7 13be 6e22 65bd 5c41 053d
000002f0: 4359 a4bd 0129 183e edc3 1c3e 043e 263d
00000300: 5ca7 19bd a13e 0e3e 2c3f cabd b0ed 4fbc
00000310: 104a b33d f41e 013d 8890 c5bd 1941 173e
00000320: 3dd2 0b3e 742c ddbd 9064 4e3c 8813 d3bc
00000330: 4dbe 063e d6b0 e23d b847 b4bd 8dc6 acbd
00000340: 00a7 9f3b c01f 58bb c0e4 313c 884c c13c
00000350: a983 10be e5da 17be 8017 a63a ca07 e3bd
00000360: 8afa b93d bbc9 053e f46f 98bd 6875 9e3d
00000370: c8da 843d 9052 f23c c02f 463b 00e8 a2bd
00000380: 70d9 203c 909d 1c3d d460 823d a2e3 e7bd
00000390: 40ec 77bc 290a 0cbe 84e1 15be 40f8 7bbd
000003a0: 5493 d5bd de32 13be 6859 fb3c f699 d2bd
000003b0: 9813 293d 5689 f73d a1b2 0f3e 4c0f 473d
000003c0: 1a60 9fbd 9005 773d 3393 afbd b0b0 f83c
000003d0: efaf f7bd ba01 a23d a894 e83c e01e 243c
000003e0: a66f ce3d 3e57 2fbd 80f0 c73a 2087 80bb
000003f0: 6e91 e63d 88bf a5bc 7038 97bc fb0b 16be

arith.constant1 f4 [128, 3]
-0.13617414 -0.10616429 0.2007436 -0.1989468 0.10460518 0.097692624 0.11540164 -0.11497344
-0.097936414 -0.05686529 -0.20991537 0.12071411 -0.19981764 0.014647141 -0.075484335 -0.15942153
0.13806783 -0.14520398 -0.07406147 -0.1605133 -0.20454538 -0.10337595 0.006391853 0.08751477
0.13165392 0.061411485 -0.18660001 0.094852015 0.08111395 0.16043647 -0.20116714 -0.002452597
-0.19425759 0.038101986 -0.15721063 -0.10782948 0.092418656 -0.06863433 -0.1136841 -0.13189673
0.034059003 0.1770175 0.13341834 0.05567448 -0.14597276 0.114511564 0.11497207 0.1103078
-0.05005172 0.1757312 0.032504186 0.07277258 0.12502642 0.0056256205 0.015142992 -0.05198233
-0.051174253 -0.06960064 -0.16288406 0.10439031 0.1769801 0.18573163 0.12787484 0.07687192
-0.13008812 0.08669676 0.15422241 -0.13929154 -0.20730847 0.09179987 -0.13305913 -0.058437005
-0.059720382 -0.091540575 0.15289138 0.061188266 0.08961813 -0.19001402 0.16226502 -0.114522845
-0.096508645 -0.036689892 -0.099048086 0.059302285 -0.08890337 0.19040947 -0.06758843 -0.041815624
-0.19173513 0.061424956 -0.025700554 -0.15522888 0.17043458 -0.078054294 -0.0292705 -0.17186277
-0.1738464 -0.10777897 0.13224451 0.12723501 -0.1359385 -0.18005502 0.11222266 0.0043857694
-0.017106071 -0.12807764 0.19552429 0.08343078 -0.1747354 -0.14297077 0.06808923 0.115502104
-0.1959864 -0.17205723 -0.12959313 0.13033624 -0.13725244 0.03653221 0.197138 -0.031272396
-0.18245135 -0.16734841 -0.21289046 -0.1727776 -0.13184398 -0.05955118 0.10346095 0.1071537
-0.16701731 -0.19362794 0.093936935 -0.111990236 -0.035842985 0.07048254 -0.21080448 0.06924386
0.1438887 0.1369239 0.18912987 0.17086656 -0.125805 -0.19207954 0.065848425 0.061120495
-0.08253048 -0.17254737 -0.08735405 0.031326175 0.18475853 -0.14974807 -0.046771854 -0.14404377
0.10961299 0.18217449 -0.12020566 0.10578512 -0.19839543 -0.21239828 0.17316781 0.12768634
-0.19117233 -0.14452386 -0.14312118 0.08075984 0.09767653 -0.19236524 -0.2118064 0.10646479
0.102455094 0.13722168 -0.14736211 -0.017695561 0.14567615 -0.025116473 -0.20060383 0.17725332
0.14021151 -0.014010966 0.045188263 0.0006571412 -0.014951706 0.15956388 0.08441584 -0.018607825
-0.14438206 -0.049520805 -0.031234846 0.12438269 0.118306205 -0.013632417 0.17353581 0.20263083
-0.18434462 -0.087109745 -0.09372004 0.061022475 0.19858657 0.17292322 -0.097072154 0.047321633
0.1732742 -0.089054145 -0.035469428 -0.011679947 -0.12424038 -0.14975567 -0.051336676 -0.021259427
0.08946051 -0.20454028 -0.08682029 -0.0636652 -0.14040408 0.12006648 -0.06986526 -0.0550559
-0.1775761 0.005326256 -0.18311104 0.19189723 -0.1713317 0.13361616 0.057696834 -0.12692434
0.19468297 0.06653349 0.04104404 -0.13030308 -0.2136862 -0.03272757 0.11623533 -0.19436678
0.07731961 0.021394745 0.08055447 0.16864924 -0.18167761 0.041779503 -0.20966591 -0.12413002
-0.015997916 -0.1108405 -0.18315819 0.04279314 -0.17208008 -0.08830255 0.14232634 -0.15499035
0.031473026 0.097703084 0.010062069 0.13600509 0.18223266 -0.1284089 0.18150447 0.16874735
00000000: 3c71 0bbe aa6c d9bd bb8f 4d3e b6b8 4bbe
00000010: 3e3b d63d 1213 c83d b257 ec3d 3277 ebbd
00000020: e392 c8bd 94eb 68bd 0ef4 56be f638 f73d
00000030: ff9c 4cbe 90fa 6f3c 8897 9abd 663f 23be
00000040: a761 0d3e 5ab0 14be 8aad 97bd 995d 24be
00000050: 5874 51be c5b6 d3bd c072 d13b f23a b33d
00000060: 49d0 063e 9c8a 7b3d 1314 3fbe c641 c23d
00000070: 121f a63d 7549 243e c2fe 4dbe c0bb 20bb
00000080: 76eb 46be d410 1c3d d3fb 20be b4d5 dcbd
00000090: fe45 bd3d 2890 8cbd 36d3 e8bd f00f 07be
000000a0: 7481 0b3d 1344 353e d19e 083e ec0a 643d
000000b0: e279 15be 0a85 ea3d 7a76 eb3d 0ee9 e13d
000000c0: 0803 4dbd e1f2 333e 1c23 053d ca09 953d
000000d0: ed06 003e 2057 b83b 501a 783c 6ceb 54bd
000000e0: 189c 51bd c88a 8ebd 14cb 26be 96ca d53d
000000f0: 453a 353e 6f30 3e3e 9ff1 023e 066f 9d3d
00000100: d235 05be 128e b13d 7bec 1d3e 71a2 0ebe
00000110: ac48 54be 9201 bc3d a740 08be a45b 6fbd
00000120: 5c9d 74bd a079 bbbd 8f8f 1c3e 8ca0 7a3d
00000130: b689 b73d 0993 42be cd28 263e f48a eabd
00000140: 53a6 c5bd 2448 16bd b9d9 cabd f4e6 723d
00000150: f812 b6bd b3fa 423e ce6b 8abd dc46 2bbd
00000160: 3756 44be bc98 7b3d f889 d2bc 52f4 1ebe
00000170: 6786 2e3e eeda 9fbd b0c8 efbc cbfc 2fbe
00000180: ca04 32be 38bb dcbd 1b6b 073e e549 023e
00000190: 7633 0bbe 5860 38be fed4 e53d 80b6 8f3b
000001a0: 0822 8cbc c926 03be 8537 483e c2dd aa3d
000001b0: d6ed 32be ee66 12be 5e72 8b3d 5e8c ec3d
000001c0: a9b0 48be c52f 30be 10b4 04be dd76 053e
000001d0: e78b 0cbe cca2 153d 8bde 493e 7c17 00bd
000001e0: 87d4 3abe 625d 2bbe f5ff 59be 9cec 30be
000001f0: 1c02 07be f0eb 73bd 56e3 d33d 6673 db3d
00000200: 9606 2bbe 6746 46be 0262 c03d 235b e5bd
00000210: 18d0 12bd 2659 903d 21dd 57be bacf 8d3d
00000220: 8f57 133e c735 0c3e 43ab 413e a5f7 2e3e
00000230: 07d3 00be 80b0 44be 8adb 863d 7c59 7a3d
00000240: be05 a9bd 42b0 30be aee6 b2bd e04f 003d
00000250: 5731 3d3e 8f57 19be d893 3fbd 3680 13be
00000260: c67c e03d f38b 3a3e 632e f6bd dea5 d83d
00000270: 2c28 4bbe ef7e 59be e752 313e 35c0 023e
00000280: aec2 43be 10fe 13be 5c8e 12be 6a65 a53d
00000290: a20a c83d 65fb 44be c7e3 58be 360a da3d
000002a0: fad3 d13d d783 0c3e 18e6 16be 48f6 90bc
000002b0: 212c 153e 10c1 cdbc 176b 4dbe e581 353e
000002c0: 9b93 0f3e 408e 65bc 5417 393d 0044 2c3a
000002d0: 00f8 74bc b764 233e 36e2 ac3d 706f 98bc
000002e0: e4d8 13be 54d6 4abd 38e0 ffbc 5abc fe3d
000002f0: 864a f23d 805a 5fbc 5fb3 313e 757e 4f3e
00000300: d6c4 3cbe 9866 b2bd 4bf0 bfbd b4f2 793d
00000310: 475a 4b3e c912 313e c4cd c6bd 54d4 413d
00000320: cb6e 313e 0562 b6bd 6448 11bd 405d 3fbc
00000330: be71 febd 8d59 19be 6846 52bd 4028 aebc
00000340: 1237 b73d 0273 51be d6ce b1bd e662 82bd
00000350: 16c6 0fbe 6ae5 f53d 8415 8fbd 4c82 61bd
00000360: 82d6 35be e087 ae3b 7681 3bbe b580 443e
00000370: 9471 2fbe add2 083e 8453 6c3d 74f8 01be
00000380: f95a 473e b642 883d cc1d 283d 2c6e 05be
00000390: 8ed0 5abe 580d 06bd ca0c ee3d 1608 47be
000003a0: be59 9e3d 0844 af3c bef9 a43d 63b2 2c3e
000003b0: b209 3abe fc20 2b3d a9b2 56be e137 febd
000003c0: 100e 83bc 5800 e3bd d28d 3bbe dc47 2f3d
000003d0: c335 30be f8d7 b4bd ffbd 113e cab5 1ebe
000003e0: dce9 003d 8e18 c83d 60db 243c eb44 0b3e
000003f0: 339b 3a3e 9f7d 03be 4fdc 393e 1bcc 2c3e
